app/src/main/ml/modeloKerasSequencialBin_antiguo.tflite (tflite, 473924 bytes, 6 tensors)

sequential/dense/BiasAdd/ReadVariableOp f4 [300]
00000000: ba6b 763b 88d2 e338 d7be a8bb e1fd 063c
00000010: 8590 99bc 7754 8e3c f8f7 b3bc e8c9 7c3b
00000020: 8e9b 6e3c 2673 df3c ad18 a0bc 9681 d0bb
00000030: a3b6 cf3b 05cb 393c bd36 f9bc 57a4 f93b
00000040: f002 13bd c678 2bbc dfc8 0cbb 1038 d73c
00000050: e617 b2bc 2756 8d3c a81c 453c fcad b5bb
00000060: d448 7b3c 9ad5 7d3a 596e 833c 019a 88b9
00000070: f884 27ba 9f80 223c 85e2 e7ba b09a ae36
00000080: ded2 c4bb acaf 193d 7186 e8ba 52ea 95bc
00000090: 6b75 ec3c 9d43 b43c 7981 173c ef0a bd3b
000000a0: f0ce 91bb fae8 7c3b 2a07 d43b 6db5 58bc
000000b0: ba97 933a f6dd 063b c898 0fbc 44ac 5dbb
000000c0: a7be 5bbc d337 723c 94d9 7c3c 14ab f4bb
000000d0: 3e14 85bc 0d8a 46bc 3b9a bd3c 1e47 0ebc
000000e0: 0a14 5d3c 9a81 95bb aad0 f33a 03c5 053a
000000f0: a419 4f3b b728 28bc a7e9 af3b e3c5 20bd
00000100: 95cf 823c 24b4 3e3c 5325 edbb d61c 27bc
00000110: 83c1 2c3b 3210 153c 76fd 96bb 3b51 873b
00000120: 2805 b93b 669d 873c 3c65 9fb9 522e 793c
00000130: 8344 e7ba 0a11 be39 c136 ab3b f402 d43b
00000140: f40f 03bd 4cd2 57bc 16db c43a f383 653c
00000150: 0e04 0fbc 9219 253b 4d9f ae3c 6ce1 303c
00000160: 7089 7b3c c46a acba 9336 18bc 24b9 46bc
00000170: d4f8 6cbc 1e5d 15bb 8aac e23b 6b74 2d3c
00000180: 208e e03b 62c7 423d e92b 923c 0db6 41bc
00000190: f5b1 9e37 a8d1 57bc 2e62 2a3c 7768 eebb
000001a0: 5ad0 81bc 2361 af3c 125c 6dbb f2f7 f23b
000001b0: 1609 783a 313c 4f3c fed4 043c c30f 41bd
000001c0: 6789 473c 911c c4bb bb87 973c 4f3f c9bc
000001d0: 6c5d c03b 8244 d339 d048 aebb 4400 84b7
000001e0: 0a06 9fb9 28c0 083c 9149 e2ba cccd a43b
000001f0: 0e8b 5c3b eb4b 323b 3f7e f03b ade6 5dbc
00000200: 54f8 cabb 8caa 943b 80c9 783c 37c3 993c
00000210: fe0e 643c f582 1abc 352b 8a3b 7c0a 74bc
00000220: 18d6 253c 243b 2ebb a453 ff3a c3e1 553c
00000230: caec 943b f0a4 0fbd 0943 ef3c a33f 0b3c
00000240: 2a29 1f3b 12ce 82b9 20c4 49bd 227e deba
00000250: 2f60 0a3c b6d6 133c ead0 63bc 37ba 263a
00000260: 7984 f0bb 4567 70bd 8fca 99bc c9dc fa3b
00000270: ffbb b73c d504 cb3c 2873 313c bfd3 d03a
00000280: eb4f aabb 13b6 72bc 6d3c 1b3b 5857 ac3b
00000290: e97a 563c 497e 5ebc 7c62 c03c 7b32 73bc
000002a0: c77c b23c 0a65 c6bc d8a4 0ebd 6cc1 af3c
000002b0: f7c1 eb3c 4621 60bc f1bb 3d3c 87a2 82bb
000002c0: 2b39 023c 93c7 b6bc a99d 77bc 39c8 8abb
000002d0: f2db a73c 4b42 323d d067 8b3b 2a08 0d3c
000002e0: 00f4 00bc 85e2 ac3c 7ac0 88bb 5154 c33b
000002f0: 084a 763b e9a2 75bc 527d 123c fa01 023c
00000300: 3928 a9bb beb9 313b 5f53 853b 96e1 d7ba
00000310: 1bcd 553c 3714 84b9 6a2b 993b da07 263c
00000320: 4f35 273a 4933 733b 1d02 d0bc 0b76 723b
00000330: 14d4 553c 6288 fdba 087b d239 b438 c13b
00000340: 44f9 67bb 0e88 29bd aa96 fdbc 75d5 a8ba
00000350: a6a1 0abb a71c 7a3b 3268 b73c dda0 433b
00000360: da66 533c 7d38 35bb 539f edbb 1f6c 90bc
00000370: 977a 5d3c 92a1 0c3c 487d 2dbb 0409 003c
00000380: 6633 3b3b 64e7 613c f27a d9bc 57d4 debb
00000390: ce64 443c ef7a 3cbc 9ac9 55bc b8b4 6fbc
000003a0: 61e9 94bc 76d1 d4bb 4b89 c1bb 8ea4 373c
000003b0: 9969 4dba acd2 c1bb c0d2 0dbc f309 4ebc
000003c0: e97c 36bc e209 8c3c 0d44 39bc a7ee adbc
000003d0: c3f3 0b3c d994 e2bc be56 dfbb 0ffe 3d3c
000003e0: 645b ac3c 83a4 84bc 4fa6 a3bc a59c 4c3b
000003f0: 41c6 103d e3d0 113c 8cb6 a53c 6381 803c
0.003760083 0.00010863418 -0.005149703 0.00823924 -0.01874567 0.01737426 -0.021968827 0.0038572494
0.014563454 0.027276587 -0.019543016 -0.006363104 0.0063389107 0.011339908 -0.030421609 0.007618468
-0.035891473 -0.010465806 -0.0021482033 0.02627185 -0.021739911 0.017252995 0.012030758 -0.005544422
0.015337188 0.0009683013 0.016043829 -0.00026054683 -0.00063903583 0.009918361 -0.001769141 5.203612e-06
-0.0060065826 0.03752105 -0.0017740262 -0.01830021 0.028864583 0.022004897 0.009247177 0.0057691257
-0.0044497177 0.0038591013 0.0064705806 -0.013226849 0.0011260428 0.0020579076 -0.008764453 -0.0033824602
-0.013412154 0.014783817 0.015432734 -0.007466683 -0.016245004 -0.012117875 0.023144832 -0.008683948
0.013493547 -0.004562569 0.0018601615 0.00051029044 0.0031600976 -0.010263613 0.0053684297 -0.03925122
0.015968123 0.011639629 -0.0072371154 -0.010199746 0.002636046 0.0090981 -0.0046078516 0.0041295565
0.0056463666 0.016554546 -0.0003040227 0.0152087975 -0.001764432 0.0003625232 0.005225033 0.0064700786
-0.031997636 -0.013172697 0.0015018906 0.01400851 -0.008728994 0.0025192243 0.021316195 0.010795932
0.015352592 -0.0013154377 -0.009290355 -0.012129102 -0.014463622 -0.0022791098 0.006917541 0.010586838
0.00685288 0.047553428 0.017843204 -0.011823189 1.8917935e-05 -0.013172545 0.010399384 -0.007275637
-0.01584642 0.021408623 -0.0036218208 0.0074148113 0.0009461803 0.012648628 0.008107422 -0.047134172
0.012178755 -0.0059848507 0.018497339 -0.02456632 0.0058705118 0.00040296098 -0.0053187385 -1.573575e-05
-0.00030331343 0.008346595 -0.0017264356 0.0050294157 0.003365222 0.0027205895 0.0073392685 -0.013543767
-0.006194154 0.0045369323 0.01518476 0.018769844 0.01391959 -0.009430637 0.0042165765 -0.014895078
0.010121845 -0.0026585544 0.0019479883 0.013054314 0.004544829 -0.035069406 0.02920677 0.008499059
0.002428601 -0.00024949067 -0.049259305 -0.0016974846 0.0084457835 0.009023359 -0.013904789 0.00063601456
-0.0073400107 -0.058692235 -0.018773345 0.007655714 0.02242851 0.024782578 0.010830678 0.0015932246
-0.0051975152 -0.014813918 0.002368714 0.0052594356 0.0130908275 -0.013579913 0.023484461 -0.014843578
0.021788014 -0.024218101 -0.034825176 0.021454535 0.028779013 -0.013679808 0.011580453 -0.00398666
0.0079482 -0.022311961 -0.015113273 -0.004235294 0.02049062 0.043520253 0.004254319 0.0086079035
-0.007870674 0.021104107 -0.0041733356 0.005960979 0.0037580747 -0.014992454 0.0089410115 0.007935042
-0.0051622656 0.0027118768 0.0040687765 -0.0016470428 0.013049389 -0.00025192063 0.004674365 0.010133708
0.0006378488 0.0037109426 -0.025391633 0.0036996629 0.013051052 -0.0019343013 0.00040145987 0.005896652
-0.0035396377 -0.041389517 -0.030955631 -0.0012880998 -0.002115348 0.003816405 0.022388551 0.002985052
0.01290294 -0.0027652078 -0.007251659 -0.017629681 0.013517997 0.008583443 -0.0026472379 0.0078146495
0.0028564571 0.013788078 -0.026547883 -0.006800215 0.011986924 -0.011503919 -0.013048554 -0.014630489
-0.01817769 -0.0064946963 -0.005906259 0.0112086665 -0.00078358647 -0.0059150066 -0.008656204 -0.012575614
-0.011138179 0.017094556 -0.0113077285 -0.021231962 0.008542004 -0.027658867 -0.0068157604 0.011596217
0.021039672 -0.016191727 -0.019976763 0.0031221297 0.03534532 0.0088999 0.020228647 0.015686696

sequential/dense_2/BiasAdd/ReadVariableOp f4 [2]
00000000: 99ba 213e 9aba 21be
0.15793838 -0.15793839

sequential/dense_1/BiasAdd/ReadVariableOp f4 [100]
00000000: f390 733d 6fe9 77bb 4fb6 f2bb 23dd 8ebb
00000010: f48e d93b 2a20 1a3c eb94 26bd 7743 17bc
00000020: af4b 813c 3cb0 24ba fa5e 0ebb dea7 023d
00000030: 5c7b da3b fb68 8a3b 6cae 40bd dd0a 7ebc
00000040: 452b 0cbd 1393 c23c 3094 26bc decc 443c
00000050: d520 803c cedd ba3c fe84 35bd df23 17bd
00000060: 1948 273d e52d 3fbc 743b ddb9 3b0f a23b
00000070: 0f7f ec3c 6383 c03b e20c 5b3d efbe 143d
00000080: 1136 053d f4ae 5c3d b5a8 35bd 101f 623c
00000090: 53b9 923c 2c5e 1c3c 841e ed3c bee7 753d
000000a0: cb9b b53d 4342 ac3c 2b7f 10bb 9e9d 3eba
000000b0: c05f 11bd a2f5 673c 8ec3 8d3c 8614 8b3d
000000c0: adc1 553c d8e9 f6bc aa2b 383d 2716 023c
000000d0: d23f 75bc d744 3d3b 48d4 533b cf92 98bb
000000e0: 9d3e 70bc 377e 9a3a 74ce 023c 9c29 26bc
000000f0: d77f 1c3d e9b4 b8b9 0ecc 89bc c500 adba
00000100: e05c e13b c570 fa3b fbc9 b63c b35e f8bb
00000110: edd5 a73b 4a83 dcb9 1c73 2bbc efea 0e3d
00000120: 1fb4 193b 16c8 8a3c 8454 9b3a 738f 763c
00000130: c27d 38bd 3a65 a3bb ab3c cb3c ee13 d6bb
00000140: 77b0 f6bc 615c 93b9 49d3 20bd db7e d7bb
00000150: 7d0b 103b 8b21 d43c b5b4 99b9 d2fd 943c
00000160: 12a5 26bd 48d9 b03d 8ee9 8cba e037 e0bb
00000170: 2a1b ecbb e6a3 673b 534f 773c 2e6e 64ba
00000180: 40a9 6cb9 8d9f 843b 0ff4 58bc 1d51 073c
0.059464406 -0.0037828346 -0.007406987 -0.0043598576 0.006639356 0.009407083 -0.040669363 -0.0092323935
0.015783159 -0.00062823645 -0.002172409 0.031898372 0.0066675376 0.0042239404 -0.04704134 -0.01550552
-0.034220953 0.023751771 -0.010167167 0.012011735 0.015640656 0.022810843 -0.044316284 -0.036899444
0.040840242 -0.011668657 -0.000421967 0.0049456633 0.02886918 0.0058750375 0.053479083 0.0363149
0.032522265 0.053877786 -0.044350345 0.013801351 0.017910635 0.009543937 0.028945215 0.06003546
0.08867606 0.02102769 -0.0022048454 -0.00072714116 -0.035491705 0.0141576845 0.017305162 0.06791024
0.013046664 -0.030140802 0.044963516 0.007939852 -0.014968829 0.0028880143 0.0032322574 -0.004656173
-0.014663366 0.0011786883 0.007983793 -0.010141756 0.038207855 -0.00035230003 -0.016820934 -0.0013199082
0.0068775266 0.0076428377 0.022313109 -0.0075796484 0.0051219375 -0.00042059488 -0.010464456 0.03489202
0.0023453308 0.016941112 0.0011850749 0.015048849 -0.045041807 -0.0049864324 0.024809202 -0.0065331375
-0.030113442 -0.00028106853 -0.039263997 -0.0065764016 0.0021979504 0.0258949 -0.0002931707 0.018187437
-0.040684767 0.08635193 -0.0010750757 -0.0068425983 -0.0072053866 0.0035345494 0.015094596 -0.0008713928
-0.00022569764 0.0040473402 -0.013241782 0.008259085

sequential/dense/MatMul f4 [300, 291]
00000000: abd5 bb3d 6c27 d83d 53d7 c9bc 777c 98bc
00000010: ab40 883d f886 a9bc c407 f93c 5e31 ae3b
00000020: 60bb 97bd 3f30 903d 5524 3ebc 9a00 f0bd
00000030: d188 d13c 79f8 84bd e832 a6bd 8701 b7bd
00000040: 5f4e 91bb 0419 d1bd 63fe 003d 2561 38bd
00000050: 7def ab3d 5fb0 a73c f05f 1abc d1a2 24bd
00000060: a6c2 d7bd 909c 3b3d 5ad3 9cbc 9c51 07bd
00000070: 7b21 acbd 8f9d 953a 69d8 e7bd f3cb 553d
00000080: 373a d33d 2272 803c 9486 bc3c 6bf7 f03d
00000090: 699e 07bc f6be 93bd eb70 3cbd 9bc1 43bd
000000a0: 13d0 4a3c f8af aabc 37bf 593d a4c7 b6bd
000000b0: 83fa 3e3d 31d0 b9bc 9e56 e6bd 26ec 883d
000000c0: 67f7 c8bd 7043 2ebd 2074 ad3d 4dc6 aebd
000000d0: a3fe ccbd b830 673d 1cf2 c3bd 37df b1bd
000000e0: e339 6a3d 7cd3 78bd 23d8 93bd a087 8c3d
000000f0: 0198 b7bd b8a9 44bd 42c0 b53d 7f5e a9bd
00000100: 4d3d acbd 6d5a fe3d c0e0 a23c ab04 e2bd
00000110: 6f2e 213d 7091 273d 8412 f4bc ca1b ca3d
00000120: ddde 87bd 4aa1 913d e52c 1a3d 93e0 76bd
00000130: f4e7 e7bd 080f 9d3d a265 bdbc 63fd 06be
00000140: 6d0f a23d 6128 0dba 3bc8 b8bc 42d7 8e3d
00000150: 86b3 9a3d cb36 01bd e91a 2d3d ae16 9d3c
00000160: 3fb4 c9bc 2c59 123c cfc2 8fbc 9879 d9bd
00000170: a9a6 40bb 035e bf3d a433 97bd fa5a bcbd
00000180: 2f13 3dbb 9555 0abd 1b62 88bd 7241 0a3d
00000190: 790f 90bc b7e0 f1bc 6a30 2e3d 86b2 c1bd
000001a0: 4a24 15bd 4450 36bd 9926 463c 7065 b8bc
000001b0: fcd9 d73b 237b 71bc b3d9 b9bd 7cdd f13c
000001c0: 4375 903d 7495 97bd ffad 8f3c 7525 b7bd
000001d0: 8127 c13d b94b 81bd b066 1d3b 2342 7bbd
000001e0: 7038 aebd 082c 9fbd 8fd8 0cbc 2248 1bba
000001f0: cce3 b9bb ed38 d0bd e7fd a4bd 8573 d3bc
00000200: 4e65 bfbc f615 8b3d d5aa 12bd a8a3 8f3c
00000210: 7507 d6bd ecf4 a23c 3197 94bb 3477 c33d
00000220: 48ee cf3c cf01 493d e62d e8bc cf27 9ebd
00000230: 1f34 893d 5431 e0bc 15a4 acbc a75d ae3b
00000240: f691 9cbd 4662 97bc 8102 6c3d 2fcc 283d
00000250: 2d63 81bd 346e c93d deba 5b3d d49a 66bb
00000260: 2f25 35bd 2c71 c7bd fb08 ca3d 2f80 9fbd
00000270: 5ec4 b33d 3874 2bb9 b405 54bd 252b 9dbc
00000280: b291 7fbc 4ae8 833c af7c a03d 0c51 9b3d
00000290: cd67 e5bb 85ed 1f3c 2a7d 693d dcb1 b5bd
000002a0: 12b4 babd 811d c93d de14 fd3b f163 983d
000002b0: 88c8 72bc b656 9cbd 4b00 d8bc 3793 fe3c
000002c0: accf c43c 3a80 b13c 8bf4 6a3d 0ebf a7bd
000002d0: 2b0a 003c 9441 953d 1655 b4bd f135 df3c
000002e0: 8df8 dd3c 46d2 debc b849 1c3d 77c7 7cbd
000002f0: 8834 9bbd 6c53 44bd 05bf 24bd 71c5 fcbb
00000300: 37be 643d e76e 1f3c a684 093d 8ec0 9d3d
00000310: b3df 92bc 649c 5e3c 6e6d 983d f686 86bd
00000320: 4843 503d 886c f6bc bc0b b2bb e4d3 8bbd
00000330: 0e0f f7bc 7efa c83d 0ef5 a93c 1aeb 4dbd
00000340: 7df0 a63d 94ba 5dbc 1bcb a83d 78e2 733d
00000350: e3ef f8bc 792d 19bc c9dc b13d 3371 f8bd
00000360: 4e05 64bd dc02 6cbd 844b 2a3d 5eb8 38bc
00000370: 2d46 11bd 2e69 913c 9fae e03c 6453 9bbb
00000380: e183 a6bd c50d 01bd 7d6b 973d 5c55 823d
00000390: b4aa ae3b 88c0 5cbd 1018 e6bc 2fca b93d
000003a0: edc0 1d3d 2c91 12bb cc6d 9b3d 033b 3cbd
000003b0: eff2 90bc 620b 5fbd 52b8 a0bc f550 71bd
000003c0: 29dc 843d ad90 a13d 48ed 3c3d ecf4 9dbd
000003d0: ed6a 683d 6c2c 9a3d 3425 bebd 97ca c63d
000003e0: 3910 273c e263 d63d 8526 eebc 6858 993b
000003f0: c319 9fbd 97d1 d13c 039c bd3d c4ad adbd
0.09171613 0.10554394 -0.024638807 -0.018614037 0.066529594 -0.02069424 0.03039921 0.0053159436
-0.07408786 0.07040452 -0.011605342 -0.11718865 0.025577934 -0.06492705 -0.08115178 -0.08935838
-0.0044343914 -0.102098495 0.031492602 -0.04501452 0.08395288 0.020469842 -0.009422287 -0.040194336
-0.10535173 0.045803607 -0.019143749 -0.033036813 -0.084048234 0.0011414754 -0.11320574 0.052196454
0.10313838 0.015679423 0.02301339 0.11765941 -0.008277514 -0.07214157 -0.046006124 -0.04779206
0.01237871 -0.020835862 0.053160872 -0.08924797 0.046625625 -0.022682281 -0.1124699 0.06685667
-0.09812813 -0.042544782 0.08469415 -0.085339166 -0.100095056 0.056442946 -0.09567663 -0.08685153
0.05718411 -0.060748562 -0.07218959 0.06861806 -0.08964539 -0.04801342 0.08874561 -0.08269977
-0.0841013 0.12419591 0.01988256 -0.110360466 0.039350923 0.040910184 -0.029793985 0.098685816
-0.06634305 0.071108416 0.03764047 -0.060272764 -0.113235384 0.076688826 -0.023119751 -0.13182597
0.079130985 -0.000538474 -0.022556415 0.06974651 0.07553773 -0.031546395 0.04226199 0.019175854
-0.02462208 0.008932393 -0.017548947 -0.10618895 -0.0029396212 0.09344103 -0.073828965 -0.0919704
-0.0028850546 -0.033773024 -0.06659337 0.03375382 -0.017585503 -0.029526098 0.04252664 -0.09457879
-0.03641156 -0.04451014 0.012094163 -0.022509307 0.006587265 -0.014738831 -0.09074726 0.029524557
0.07053616 -0.07401553 0.017539022 -0.08942691 0.09431363 -0.06313271 0.0024017505 -0.06134237
-0.08506858 -0.0777207 -0.0085965535 -0.00059235294 -0.0056729075 -0.10167108 -0.080562405 -0.02581192
-0.023363736 0.06791298 -0.03580745 0.017534092 -0.10450641 0.019892178 -0.004534625 0.095442206
0.025382176 0.04907399 -0.028342199 -0.07722437 0.066993944 -0.027367271 -0.021074334 0.005321223
-0.07645027 -0.018479478 0.057619575 0.04121035 -0.063177444 0.09835473 0.053645007 -0.00351875
-0.044224914 -0.09738383 0.09864994 -0.07788121 0.087776884 -0.00016351126 -0.05176325 -0.019185612
-0.015598701 0.016101975 0.078362815 0.07583818 -0.0070008994 0.009761219 0.05700413 -0.088718146
-0.09116377 0.098200805 0.007723435 0.07440937 -0.014818318 -0.07633726 -0.026367327 0.031076057
0.024024807 0.021667589 0.05736212 -0.08190738 0.007814924 0.07287899 -0.08805291 0.027247401
0.027096057 -0.027199876 0.03815624 -0.061713662 -0.07578379 -0.04793112 -0.040221233 -0.0077139665
0.055845466 0.009731031 0.03357377 0.077027425 -0.017928934 0.013587091 0.07442747 -0.065687105
0.050845414 -0.030081049 -0.0054335278 -0.06827524 -0.030158546 0.098134026 0.020746734 -0.05027304
0.08151338 -0.013533253 0.08241864 0.05954215 -0.030387824 -0.00934922 0.086846896 -0.12130966
-0.05566912 -0.057619914 0.041575924 -0.011274425 -0.035467315 0.017750349 0.027427016 -0.0047401655
-0.08130623 -0.031507272 0.07393549 0.06363937 0.005330408 -0.05389455 -0.028087646 0.090717666
0.038514066 -0.0022364361 0.075893015 -0.045954715 -0.017693965 -0.054454215 -0.01961914 -0.058915097
0.06487305 0.07888923 0.046124727 -0.07712731 0.056742597 0.07528004 -0.0928444 0.0970661
0.010196739 0.1046827 -0.029071102 0.0046797283 -0.077685855 0.025612636 0.092582725 -0.08480409

sequential/dense_1/MatMul f4 [100, 300]
00000000: 170b b63d 9868 bb3c 75f3 523d 8de8 323d
00000010: c650 8d3c f527 aabd 3968 dfbd fc63 a93c
00000020: 038f cc3d 3457 173e 4942 de3c d289 e0bc
00000030: a40d 163d aea2 473a 7368 88bd 4f92 dd3d
00000040: 7d60 b0bd a7ff 7f3d 130c bfbd 23a3 1c3e
00000050: dc24 a2bd 2f27 aabd c3f9 e93d 116c 81bd
00000060: 800a 10bd 5c16 05bd 2d43 103e 4822 ffbc
00000070: 2694 95bd 4e97 02be d789 983d 3ea6 4ebd
00000080: 64a5 0d3e 3c02 e63d 22fd 743d dfa3 24bd
00000090: c9e8 653c d672 e93c 620b 9cbd b433 f0bc
000000a0: ba68 b6bd c9e1 af3b 8c56 bebc caad 113d
000000b0: e13a 00ba d871 08bd f5ac 00be 30a2 c9bd
000000c0: 8fe4 db3d f384 ccbd 2a45 053e a2a6 ebbd
000000d0: 3ec0 b0bd 3904 df3d dbe4 103e 92ee f13c
000000e0: ef99 12ba de52 913b bef5 28bd 6c2f 4fbc
000000f0: cb45 d7bd 3808 74bd 68d7 463d da07 9cbd
00000100: 697b a43d 4f9b 8d3c e55d b03d 2e1f c53d
00000110: 0153 803d 75d8 97bd c9ed 6bbd 1d54 c3bd
00000120: 0897 e8bd 6710 38bc 41fb 2fbb 6c6f 4b3d
00000130: 6ccb 12bd c7b7 cebb b282 233c 88f7 afbc
00000140: e366 63bd fdae 60bd bbcf b23b 90dd 313d
00000150: a715 77bc 6635 c83d e3f0 99bd ead8 273c
00000160: 531f 5fbd 85e3 fe3d 8d92 f13c a221 aabd
00000170: eb3e b33d c8d7 b23d 8683 c93d e6bf 633d
00000180: d4c9 123d 3ef7 0c3e 6a7b 053e d8ad c1bd
00000190: f670 dcbc 79b8 f23d 74cc a63d 0e53 d5bb
000001a0: 30c9 d03d 184a f63d a7e9 1c3a d117 3d3d
000001b0: ebaf ef3d 7887 703d ed08 a5bd 14a7 103c
000001c0: 8963 ef3b 5e67 d3bd 1f65 8c3d e104 07be
000001d0: eb0b 803d fb5c 19bd 471f 313d 6443 cfba
000001e0: c7af 283d 079d b63d 1ed6 b73d d411 beb9
000001f0: 7629 e8bd ce4f b5bd b74d fd3d 7279 eebd
00000200: e841 9739 8012 e23d 2d66 efbd afe2 cd3c
00000210: 662e b4bd d30f f9bd 7bed 853c 4651 bf3d
00000220: d51d 8e3d e659 b23d 89aa 21bc 9171 763d
00000230: cd20 9f3d 96ee c5bd 6f31 ab3c da7d ab3d
00000240: 812e 3ebd 8c42 1b3d 1417 a4bd 383f b3bd
00000250: ba2e 8abd 7c94 a33d a8f0 c8bd 5909 85bc
00000260: bce5 f3bd 04e0 0bbe 1138 acbd 1037 803c
00000270: e30e ce3d f812 433d f03e 7d3c a56a 92bc
00000280: 755d 903c eaf7 89bc 6381 973c cab8 b7bd
00000290: ef0d eebd 263b 12bd 50ff bb3d 7c4d e3bd
000002a0: 1c48 abbd 8af7 32be 875d c7bd 7927 a73d
000002b0: ba90 0f3e dbf5 d3bd 6c0e 7abc a4e9 3c3d
000002c0: 04b4 1e3d 5149 673b 3053 803d 1dde 643c
000002d0: 81bc 17bd feff aa3d 5118 a03d 2ef8 7e3d
000002e0: e387 45bc a502 523d ad00 183d f7eb 5c3d
000002f0: a219 fa3d cf36 813c 5b50 413d ddff 643d
00000300: 6d7b 21bd 6da8 343d c42a 9dbd dbcc b53d
00000310: 21c5 ac3d 4017 893d da7d 983d 1dbe b8bc
00000320: cdcc 9e3b e172 f83d f4cc a3bc 2741 133d
00000330: 2f7b 873d 4a75 aabc 5d36 ae3d 4d2c 633d
00000340: 96f1 8cbc 2e42 b8bd 17aa 4bbb b8cc dd3d
00000350: 7e3a bebd 3efc d0bd 54be 233d 7286 813c
00000360: 9eea ee3d deb0 f8bc 2a1e c9bc 3bc2 0dbd
00000370: 7e7b c93d 2b61 f3bc cdbc 6fbd 63b9 97bc
00000380: d179 e0bd f422 a83d 4f4b 3e3b a9f4 cdbd
00000390: d2bd 7ebd f453 64bd 9dbb 1dbe a933 d8bd
000003a0: 79ea 913d 09ff 92bd ab62 dcbd 629f 8e3d
000003b0: 1003 07be 4b0e b53d 73f4 89bd ff14 293e
000003c0: d7f5 a5bc 507f 463d cec2 cd3d 385f ddbd
000003d0: dc0d c5bd 8f4c 053c 7e9a c8bd 174e ea3d
000003e0: 834c 963d 0dd5 92bd 4df6 3dbe 75ef ad3d
000003f0: da38 ee3d 0dc1 97bd 1b69 373d 5310 963d
0.08888834 0.022877023 0.05150171 0.04367881 0.01725043 -0.083084024 -0.10908551 0.02067756
0.09988215 0.14779359 0.027131217 -0.027409468 0.036634102 0.0007615489 -0.06660547 0.10818922
-0.08612154 0.06249967 -0.09328475 0.15296607 -0.079171866 -0.08308255 0.114245914 -0.0631944
-0.035166264 -0.032492027 0.14088126 -0.031144276 -0.07303648 -0.1275303 0.07448166 -0.05045151
0.13832623 0.11230895 0.05981172 -0.040195342 0.014032551 0.02849714 -0.076193586 -0.029321529
-0.08906694 0.005367492 -0.023234628 0.03556613 -0.0004891586 -0.033311695 -0.12565978 -0.09845388
0.107369535 -0.099862956 0.13014665 -0.11506392 -0.08630417 0.10889477 0.14149801 0.029532705
-0.0005592396 0.0044349274 -0.041249983 -0.012645584 -0.10511359 -0.05957815 0.04854527 -0.07618685
0.08031351 0.017285971 0.08611659 0.09625088 0.06265832 -0.07414333 -0.057599816 -0.09537528
-0.11356932 -0.011234379 -0.002685264 0.049666807 -0.03583853 -0.006308529 0.009979891 -0.021480337
-0.055518042 -0.05485438 0.0054568923 0.04342419 -0.015080846 0.0977581 -0.075166486 0.010244587
-0.054473232 0.1244574 0.029488826 -0.08307196 0.08752235 0.08732563 0.09839539 0.05560293
0.03583701 0.1376619 0.1303536 -0.09456986 -0.026909333 0.118515916 0.08144465 -0.006510145
0.101946235 0.12025851 0.00059857446 0.04616529 0.117034756 0.058722943 -0.08058343 0.008828897
0.0073055667 -0.1032245 0.06855225 -0.13185455 0.06252273 -0.03744219 0.04324272 -0.0015812931
0.04118326 0.08916669 0.089763865 -0.00036252907 -0.11336033 -0.08853112 0.123683386 -0.116442576
0.00028850068 0.11038685 -0.1168941 0.025132505 -0.08797912 -0.12161221 0.016348591 0.093416736
0.06939284 0.08708553 -0.009867319 0.0601669 0.07769928 -0.09664647 0.020897595 0.08373614
-0.04643107 0.03790526 -0.08012214 -0.087522924 -0.06747194 0.079873055 -0.098115265 -0.016239809
-0.11909053 -0.13659674 -0.08409131 0.015651256 0.10061433 0.047625512 0.0154569 -0.017873118
0.017622689 -0.016841847 0.018494314 -0.089707926 -0.11623751 -0.03570094 0.09179556 -0.11098763
-0.08363363 -0.17477241 -0.09734636 0.08161826 0.14020053 -0.103496276 -0.0152622275 0.046121255
0.038745895 0.0035291503 0.06265867 0.013968972 -0.037045006 0.08349608 0.07817138 0.0622484
-0.012056324 0.051272053 0.03711002 0.05393597 0.1221192 0.015773205 0.047195774 0.055908073
-0.03942435 0.044105936 -0.076741725 0.08876964 0.08436037 0.06693888 0.07445879 -0.02255159
0.0048461915 0.121312864 -0.01999519 0.035950806 0.06615292 -0.02080788 0.08506463 0.05546217
-0.01720504 -0.08996998 -0.0031076723 0.10830063 -0.092885 -0.102043614 0.039976433 0.015811179
0.116658434 -0.030357774 -0.024550516 -0.03460906 0.098380074 -0.02970942 -0.058529664 -0.018521016
-0.10960735 0.08209792 0.0029036587 -0.10056431 -0.062192746 -0.055744126 -0.154036 -0.105567284
0.071248 -0.0717755 -0.10761007 0.069639936 -0.13184762 0.08840617 -0.06736078 0.16511916
-0.020258827 0.04846126 0.10046922 -0.10809177 -0.09621784 0.008135929 -0.09795092 0.11440676
0.07338812 -0.071695425 -0.18550988 0.084929384 0.11631937 -0.074098684 0.04477797 0.07327332

sequential/dense_2/MatMul f4 [2, 100]
00000000: 4925 9c3e 6d88 d23d b935 263e ba96 253d
00000010: 4ce9 bd3c b614 713e 061e abbe 95b3 0ebe
00000020: ec11 893e 20f4 e2bc 765d 4dbe 1dee 343e
00000030: 264a 7cbd 3f6e 5abd d04e efbe 2207 afbe
00000040: 1f79 7fbe 27ba 4a3e e556 88be e6d4 b33d
00000050: 05c1 0e3e 3dd1 ee3d c726 e2be 4c5d 5dbe
00000060: 0cdc b93e 11a3 e9bd c6f7 13be 011d a43d
00000070: 5ea9 9c3e df17 873e f64e f53e bc96 c93e
00000080: 37a7 963e 32e1 ee3e e319 e1be a799 073e
00000090: 5101 943e e73a 2fbd dba6 233e 1b63 9f3e
000000a0: 33a6 203f 3603 fd3d cc49 8cbd 5ad9 33be
000000b0: df19 b5be 5459 883d 5973 443e 7a82 d93e
000000c0: 4d2f 453e 0a85 34be dca0 983e dfc9 f2bd
000000d0: 91de 25be 8917 063e 6291 473e aa9c 6b3d
000000e0: 5a50 8bbe e2ff a7bd 5b50 e8bd 7c0e 1bbe
000000f0: a2a5 893e 1de5 98be 33b2 ccbc 0c05 783d
00000100: 2a45 883e d34b dc3b 5b61 863e cc96 84be
00000110: 43ae 09bd e8cd 003e d3ec 78be 0013 1d3e
00000120: 84f2 26bd e9ae ed3d cc86 96bd 2bf9 363e
00000130: a9e9 06bf 18bf 97be f40f 183e 5483 90bd
00000140: b1c6 e5be 7f0a cdbd 0713 a9be 2ab6 15be
00000150: 499f 45be 54ff b73d e561 0f3e e44c c03e
00000160: 615a 1abf c515 453f 9cef 1bbe 0ea3 12be
00000170: a2b9 0abe 1d15 7f3d e8f2 5a3d fe56 e5bb
00000180: 896f dc3d 74ed 17be 9fb5 67be c434 043e
00000190: dc00 fcbe 4893 803e a88a 603e 0f74 5c3e
000001a0: c35f ffbd f0e2 84bd 8b7b 073f ee48 623e
000001b0: 6a5d 19be e540 a3bd 8910 e3bb b136 c4be
000001c0: 424a 80be 0f36 54be e71b 0b3f a5fa d13e
000001d0: 4572 9b3e 026d 3fbe 5fd6 d1bd 8174 19be
000001e0: ca54 dabd 655a 9bbe 7738 ef3e 6618 b23e
000001f0: ee7b 30be d52c 3a3d 7353 0abe eb92 7abe
00000200: 1b0c b3be 50d6 ca3d c4c8 f1be 7434 a8be
00000210: e9b8 b5be 48b2 b8be 0929 023f ba09 a7bd
00000220: 0e0c a6be 3238 54be 328d 95be 45ae e3be
00000230: 99f8 41bf a772 6cbe 2623 f6bc 5b44 71be
00000240: 79e3 8f3e 7ad8 91be 9505 75be 820e c5be
00000250: fbfe cabc 43ce c93e cc1c efbe 4a49 5fbe
00000260: 66c7 d5bd 3568 a6bd 5bca f63c 4160 673e
00000270: 8ec7 7c3c aad2 07be 2cb2 90be bec2 0a3e
00000280: 9270 19be ea7d e93c b9f9 983e fef7 63bc
00000290: c5b8 73bd 5952 06be 7193 46bd 5702 763e
000002a0: 6aef 533e dc47 0a3e 3bfd 773e acec c3be
000002b0: a567 5cbe 576e a4be e0d3 9a3e 9a55 97bd
000002c0: abe6 033f 2621 b8bd d00e 8dbe ccba aabd
000002d0: 9ddd 433e ebc5 7fbe fc28 953e 5513 343d
000002e0: f127 81be b948 7abe 0eee 9d3d cab5 9dbd
000002f0: d1cb eb3e 2752 1cbf 164e 07be ffbe a33c
00000300: 0baf 983e a45e b7be 239e 27be 647a 493e
00000310: a9c9 183e 173c c23d 68eb ae3e 1ad2 0bbe
0.30497196 0.102799274 0.16231431 0.040426947 0.023182534 0.23543057 -0.33421344 -0.13935693
0.26771486 -0.027704298 -0.20055184 0.17668958 -0.06159415 -0.053327795 -0.46739817 -0.3418513
-0.24948548 0.19797574 -0.26628795 0.087808415 0.13940819 0.11661003 -0.4417021 -0.21617621
0.36300695 -0.114080556 -0.14449987 0.080133446 0.30597967 0.263854 0.47911805 0.39372814
0.2942445 0.46656185 -0.43965062 0.13242207 0.28907254 -0.042780783 0.15981619 0.311303
0.627536 0.12354128 -0.06850013 -0.17563382 -0.353713 0.06657663 0.19184627 0.42482358
0.19256325 -0.17628875 0.29810226 -0.1185491 -0.16198184 0.13094915 0.19489053 0.057522453
-0.2720974 -0.08203103 -0.113434516 -0.15142244 0.2688418 -0.298623 -0.024987316 0.060551688
0.26615268 0.006722906 0.2624615 -0.258963 -0.033613455 0.12578547 -0.24309091 0.15339279
-0.040758625 0.11605627 -0.07349929 0.17868488 -0.5270029 -0.2963798 0.14849836 -0.07056299
-0.44878152 -0.100117676 -0.3302233 -0.14620271 -0.19299044 0.08984247 0.14002188 0.37558663
-0.6029416 0.7698634 -0.15228122 -0.14320013 -0.13547376 0.062275995 0.05345431 -0.0069988957
0.10763461 -0.14836675 -0.22627877 0.12910753 -0.49219406 0.25112367 0.21927893 0.21528648
-0.12469437 -0.064885974 0.52922887 0.22098133 -0.14977041 -0.07971362 -0.0069294614 -0.38322976
-0.25056654 -0.20723747 0.5433945 0.4101154 0.30360618 -0.18693927 -0.10245966 -0.14985849
-0.106607035 -0.30342403 0.46722767 0.3478424 -0.17234775 0.04545291 -0.13508396 -0.24470107
-0.34970173 0.09904158 -0.47223485 -0.3285252 -0.35492638 -0.36073518 0.50843865 -0.08156152
-0.32431072 -0.20724562 -0.29209286 -0.44468895 -0.75769955 -0.23090611 -0.030046057 -0.23561232
0.28103235 -0.2848547 -0.2392791 -0.3848763 -0.024779787 0.39415178 -0.46701658 -0.21805301
-0.10438423 -0.08125345 0.030125787 0.22595312 0.015428437 -0.13263956 -0.28260934 0.13550851
-0.14984348 0.028502423 0.29878023 -0.013914106 -0.05950238 -0.1311735 -0.048480455 0.2402433
0.20696798 0.13503975 0.24217694 -0.38266504 -0.21523912 -0.32115433 0.30239773 -0.07389374
0.51523846 -0.089906976 -0.27550364 -0.0833641 0.19127508 -0.24977843 0.2913283 0.04396375
-0.25225785 -0.24441804 0.07711421 -0.07700689 0.46053937 -0.61062855 -0.13213381 0.019988535
0.29821047 -0.35814393 -0.16368918 0.19675595 0.14920677 0.094841175 0.34163976 -0.13654366
